rec/algo/cache/ent_emb.pth (torch, 214492 bytes, 1 tensors)

weight f4 [1666, 32]
0	0xbf7105ff	-0.94149774
1	0xbfd7bc29	-1.6854297
2	0x3ed97d29	0.42478302
3	0x3e87f2f3	0.26552543
4	0xbe97ed17	-0.29673073
5	0xbeb46d8d	-0.3523983
6	0xbf1ee783	-0.6207201
7	0xbf32e437	-0.6987948
8	0xbf220245	-0.63284713
9	0xbf8b17ed	-1.0866677
10	0x3d0f1b56	0.03493818
11	0xbf1a3809	-0.6024175
12	0xbf560297	-0.835977
13	0x3e92e4a1	0.28690055
14	0xbf6a6a53	-0.9156849
15	0xbec02f37	-0.37536022
16	0x3de6e651	0.11274398
17	0x3fd7a8eb	1.6848425
18	0x3d4b0a40	0.049570322
19	0x3ea62c85	0.3245584
20	0x3eb92a63	0.3616515
21	0x3f14d00f	0.5812997
22	0x3f683783	0.90709704
23	0xbf1e63ab	-0.6187083
24	0x3f243705	0.64146453
25	0x3fe5ae9f	1.7943915
26	0x3d8911af	0.06692826
27	0x3f2e0361	0.67973906
28	0x3f89060f	1.0704974
29	0x3ea2f055	0.31823984
30	0xbead98f7	-0.33905765
31	0xbfb114ce	-1.3834474
32	0x3ece2404	0.40261853
33	0x3ec6502c	0.3873304
34	0xbf8999fa	-1.0750115
35	0xbe365cc0	-0.17808819
36	0xbf95ac5f	-1.1693228
37	0x3fa79121	1.3091165
38	0xbeaebe32	-0.34129483
39	0x3f50e7cc	0.81603694
40	0xbf1083d4	-0.56451154
41	0xbf08618f	-0.5327386
42	0xbe8fddbe	-0.28098863
43	0xc00f3b72	-2.2380033
44	0x4009d325	2.1535122
45	0xbedf3fae	-0.4360327
46	0xbf2d47d2	-0.67687714
47	0xbf9118d9	-1.1335708
48	0xbdcd7ec1	-0.10033942
49	0x3ec94ed4	0.39317954
50	0xbe9aa30a	-0.30202514
51	0x3e92dcc2	0.2868405
52	0xbed37ee2	-0.4130774
53	0xbe795680	-0.24349403
54	0x3eed8378	0.46389365
55	0x3fc61b80	1.5477142
56	0x3e5b53b6	0.21418652
57	0xbf1a26ee	-0.6021565
58	0x3ed452cc	0.4146942
59	0x3f772f36	0.96556413
60	0xbecb3a4a	-0.3969291
61	0xbcaae66a	-0.020861823
62	0xbfb3a43c	-1.4034495
63	0x3f5d7cfc	0.86518836
64	0x3ee7b98c	0.4525875
65	0x3f5a6b25	0.8531974
66	0xbcbc6ce4	-0.023001142
67	0x3fd15b0d	1.6355911
68	0x3e34ddfe	0.17662808
69	0xbf4dd021	-0.80395705
70	0x3e696192	0.22791126
71	0xbff19e6f	-1.8876475
72	0x3f3df259	0.7419792
73	0xbf9cdb0d	-1.2254349
74	0x3f933f8f	1.1503772
75	0xbfe4186f	-1.7819957
76	0xbd3291b3	-0.04359598
77	0x3fd19213	1.6372703
78	0x3fb8cd25	1.4437605
79	0x3f830163	1.0234798
80	0xbe08a812	-0.13345364
81	0x3f171e17	0.5903029
82	0xbe6b79b0	-0.22995639
83	0xbfde8203	-1.7383426
84	0xc00e596f	-2.2242086
85	0x3fbb0c05	1.4613043
86	0xbf3466a9	-0.70469147
87	0x3ed59200	0.41712952
88	0x3d5d0809	0.05396274
89	0xbf2c70d5	-0.6735967
90	0xbe120864	-0.14261013
91	0xbfc3aebd	-1.5287701
92	0xbf8c9f1f	-1.098606
93	0x3e93dc2c	0.28878915
94	0xbece0dbe	-0.4024486
95	0x3f25ebff	0.64813226
96	0xbff7c858	-1.9358015
97	0x3d3da144	0.046296373
98	0xbcd22de8	-0.025656655
99	0x3f3c5bcb	0.73577565
100	0xc04d8698	-3.21134
101	0xbf5f903b	-0.87329453
102	0x3e52aa74	0.20572835
103	0xbf850f02	-1.0395205
104	0x3f83d298	1.0298643
105	0x3e47f258	0.1952604
106	0xbec91fe7	-0.39282152
107	0x3f4af76d	0.7928379
108	0x40002c71	2.0027125
109	0x3eb98da7	0.36240885
110	0xbf25060f	-0.6446237
111	0xbf32eaff	-0.69889826
112	0xbf0fe9d3	-0.5621616
113	0xc0043cda	-2.066214
114	0xbb06a3f3	-0.0020544499
115	0x3f9a70e8	1.2065706
116	0xbd8d1dde	-0.06890462
117	0x3f30c3b1	0.690486
118	0xbef1b4a3	-0.47208127
119	0xbf6bf8db	-0.921766
120	0x3dee1ee8	0.11626989
121	0x3efb113f	0.49036595
122	0x3fae135c	1.3599658
123	0x3f9170f8	1.13626
124	0x3ebb33f1	0.36563066
125	0x3fbe7dae	1.4882104
126	0xbf79c0cd	-0.97559816
127	0x3e7d29af	0.24722932
128	0xbe849e2c	-0.25901926
129	0xbefe2988	-0.4964106
130	0xc0054efc	-2.0829458
131	0x3f01acb6	0.5065416
132	0x3dc59c4c	0.09648952
133	0x3e3c51e6	0.18390617
134	0xbeeb5489	-0.45962933
135	0xbc9d71a6	-0.01921923
136	0x3efbd53c	0.49186122
137	0x3e16814c	0.1469776
138	0xbf6659bc	-0.89980674
139	0xbeff6e62	-0.49888903
140	0xbcf85ee8	-0.030318692
141	0x3ff8f8c3	1.9450916
142	0xbf4a74c0	-0.79084396
143	0xbf367ffc	-0.7128904
144	0xbfbc7da5	-1.4725844
145	0xbee4cbe9	-0.4468682
146	0x3f2b1110	0.6682291
147	0xbfa4e7c3	-1.2883228
148	0xbfea5869	-1.8308231
149	0xbf8ed3c1	-1.1158372
150	0x4035af34	2.8388186
151	0x3fa0dccd	1.2567383
152	0x3f88d9e9	1.0691501
153	0x3de3949e	0.11112331
154	0x3f9326b1	1.1496183
155	0xbf9e8cb1	-1.2386686
156	0x3f341258	0.7034049
157	0xbddb3f9c	-0.10705492
158	0x3f43b9cc	0.7645538
159	0xbe3e5704	-0.18587881
160	0xbf413e2f	-0.7548551
161	0xbf99d836	-1.2019107
162	0x3f0eaa8c	0.55728984
163	0x3e0da6a6	0.13833103
164	0x3fa32da2	1.2748301
165	0xbed7c567	-0.42142794
166	0x3e5a553c	0.21321577
167	0x3f9bb9d2	1.2166083
168	0xbefbfd2a	-0.49216586
169	0xbf880922	-1.0627787
170	0x401b3823	2.4253013
171	0x40200854	2.5005083
172	0xbee72f27	-0.45153162
173	0xbfdafd3a	-1.7108529
174	0xbf876520	-1.0577736
175	0xbf60e55d	-0.8784998
176	0xbdc928ef	-0.098222606
177	0x3f25f54f	0.64827436
178	0xbf86b7cc	-1.052484
179	0xbea22d6b	-0.31675276
180	0xbf76ad92	-0.963586
181	0x3cdcb4df	0.026941715
182	0xbd520b8c	-0.051280543
183	0xbf5ecbd3	-0.8702976
184	0xbfbabc1e	-1.4588659
185	0xbbeced85	-0.007230463
186	0x3f82c56a	1.0216496
187	0xbda6be40	-0.08141756
188	0x3e72980e	0.23690817
189	0x3e48d3d6	0.19612059
190	0x3f167203	0.5876772
191	0x3e95505d	0.29162875
192	0x3f0a4f85	0.5402759
193	0xbf9948bc	-1.1975322
194	0x3f88b664	1.0680661
195	0xbfffae42	-1.9975054
196	0x3f39509d	0.7238863
197	0x3f5191cf	0.8186311
198	0xbf96412e	-1.1738641
199	0x3fcfcc44	1.6234212
200	0xbe9e2677	-0.3088872
201	0xbedb63a3	-0.42849454
202	0xbd727619	-0.059194658
203	0xbfde58d6	-1.737086
204	0x3fff4a1a	1.9944489
205	0x3d48ca2e	0.04902094
206	0xbe01624e	-0.12635157
207	0x3f3857d1	0.72009
208	0xbf63e1e1	-0.8901654
209	0xbebdd241	-0.37074474
210	0xbeba38b3	-0.36371383
211	0xbf94df0d	-1.163057
212	0x3f08a8ad	0.5338238
213	0xbe839b55	-0.25704446
214	0x3f720bdd	0.9454935
215	0x3f80a764	1.0051084
216	0xbedbfad3	-0.429648
217	0xbe60a96c	-0.2193963
218	0xc00a3a53	-2.1598098
219	0x3f01b5b7	0.506679
220	0x3ef8e356	0.48610944
221	0xbed971db	-0.42469677
222	0xbdcb31b5	-0.0992159
223	0x3e43b31e	0.19111297
224	0xbf3f09fc	-0.7462461
225	0x3f3fe1dc	0.7495401
226	0xbe7964aa	-0.24354807
227	0xbc92f16b	-0.017937383
228	0xbf25e9c8	-0.64809847
229	0x3e9df8c7	0.30853865
230	0x3f9c86bb	1.2228616
231	0xbfdaadef	-1.708433
232	0xbc18ab17	-0.009318135
233	0xbf0fa958	-0.56117773
234	0xbed23f0f	-0.41063735
235	0xbf09975c	-0.5374658
236	0x3de5ce28	0.11220962
237	0x3f479d2a	0.7797419
238	0xb9c48530	-0.00037483266
239	0xbe9c4beb	-0.3052667
240	0x3e854e57	0.2603633
241	0xbe7d0844	-0.24710184
242	0x3fb7be47	1.4354943
243	0xbfb6fa07	-1.4295052
244	0xc00d861a	-2.21131
245	0x3ef264dd	0.47342578
246	0xbf89e31b	-1.0772432
247	0x3df84d44	0.12124112
248	0xbf25bc66	-0.647406
249	0xbd3571b2	-0.04429788
250	0xbfa7b187	-1.3101052
251	0x402f492a	2.7388406
252	0x3f8e2ff1	1.110838
253	0xbda305de	-0.079601035
254	0x3f2ff4b8	0.68732786
255	0x3f0ac0de	0.5420054
