rec/algo/cache/ent_emb_bpr.pth (torch, 214512 bytes, 1 tensors)

weight f4 [1666, 32]
000000 fd a8 10 bd e7 8f 3b be 68 fd 97 3d 69 c6 94 3e
       -0.03531741 -0.18316613 0.0742138 0.29057625
000010 8a 39 8a bd 3e 4e 7f be 9e 11 2d 3e 7b a2 59 be
       -0.06749256 -0.24932191 0.16901252 -0.21253388
000020 f4 d0 0b 3c 2b df 89 be 2b 19 10 be c1 54 81 be
       0.008533705 -0.26928076 -0.14072101 -0.25259975
000030 4a 34 d0 bc 79 5c 2a bd 73 2b 2f 3d 99 d0 8f 3e
       -0.025415558 -0.041592095 0.042766046 0.28088835
000040 65 52 29 3e 3f 9b b4 3d 88 68 a6 bd 45 99 81 bd
       0.16535337 0.08818673 -0.081254065 -0.06328062
000050 99 60 9b be 23 4d 20 be 89 a5 5e be 2b ba 88 3e
       -0.30347136 -0.15654425 -0.21742834 0.26704535
000060 53 be 86 be 21 70 ce 3d 57 d4 4d 3e 5c dc ed bd
       -0.2631708 0.10079981 0.20100532 -0.11614296
000070 3b fe 3b 3d 45 d8 2a be ca f9 96 3a 17 06 68 3e
       0.04589675 -0.16684063 0.0011518535 0.22658573
000080 ab 78 b3 3d 8e 43 14 be 3e d0 db bc 1c 81 33 3e
       0.0876325 -0.14478895 -0.026832696 0.1752972
000090 51 b2 70 3e 4e f6 84 be d6 d5 07 3e 37 9d 90 bd
       0.23505522 -0.25969166 0.13265166 -0.07061236
0000a0 e0 28 06 3e 93 2f 9c bd 87 df 5a be 3c 72 62 be
       0.1310153 -0.076262616 -0.21374331 -0.2211389
0000b0 d6 88 23 be 4b 54 19 3e cd 7b 4a 3e 1b c4 fc 3d
       -0.15970168 0.14973561 0.19773789 0.12342092
0000c0 65 3a 8a 3e 80 d4 3e 3e 52 cf b3 bd c5 d4 12 be
       0.26997676 0.1863575 -0.087797776 -0.14338978
0000d0 74 39 79 be 6c e6 5e be d0 d9 cf bd 72 a1 f1 3d
       -0.24338323 -0.21767586 -0.10148966 0.117983714
0000e0 99 3d 9e be 5c bd b4 3d 85 cc 34 3e d1 de 46 be
       -0.3090637 0.0882518 0.17656143 -0.19420935
0000f0 11 97 7d 3e f0 ce 17 be 93 c4 09 3e 29 21 3e 3e
       0.24764659 -0.14825034 0.13453893 0.18567337
000100 ae 1e 36 bc 39 c4 0b 3c ae 63 f5 bd 64 c9 ff 3d
       -0.011115713 0.00853067 -0.11981903 0.12489584
000110 35 4c 2b 3e 4a a9 39 be b3 70 83 3e 79 73 87 3d
       0.1672829 -0.18130985 0.2567192 0.066138215
000120 f8 0b 02 be 7e 29 71 be 81 bf 56 be e5 17 83 be
       -0.12699878 -0.23550984 -0.2097149 -0.25604168
000130 da d6 65 be 6d 51 f2 3d 69 c3 ae 3d 9d b7 52 bc
       -0.2244524 0.11831937 0.08533365 -0.01286116
000140 46 7d 88 3e ad 82 8f 3e 11 38 61 be 42 4c 4f bc
       0.26658076 0.28029385 -0.21994044 -0.012652459
000150 a2 70 85 be b6 69 77 bd a8 6f 22 3d 14 ee 71 3e
       -0.26062495 -0.06040355 0.039657265 0.23625976
000160 d9 af a2 bd e0 87 b1 bb 09 5f 94 3e 15 7d 5d be
       -0.079436965 -0.005417809 0.28978756 -0.21629746
000170 bd e4 12 3d 03 a1 8c be 8b 7d 7f bd f1 1b 4f 3e
       0.035862673 -0.27466592 -0.062375586 0.20225503
000180 3d e4 a8 bd d1 ab 5e 3d bf 78 f5 3d f6 74 59 3e
       -0.08246658 0.054363076 0.11985921 0.21236023
000190 1e 75 49 3e a7 94 ff 3c 01 f2 89 3e 04 53 73 be
       0.19673583 0.031198813 0.26942447 -0.23762137
0001a0 e4 05 83 3e fe e5 3e be 1e ec 17 be f4 3a 06 be
       0.25590432 -0.18642423 -0.14836165 -0.13108426
0001b0 5d 25 0e 3e 8c 40 0a be 33 9b 74 3e e0 2c 74 3e
       0.1388144 -0.13501185 0.23887329 0.23845243
0001c0 a1 b7 6e 3d 1f 4e 1f be b1 7d 3a bd ed 14 50 bd
       0.05828059 -0.15557145 -0.045530025 -0.050801206
0001d0 3b 86 42 bd 2d a2 11 3e dc 56 72 be a6 04 d5 3d
       -0.047491293 0.14222021 -0.23665947 0.10401277
0001e0 f0 09 5b be cc 0d 65 3e 6c fa 81 3e 2f 84 8e be
       -0.2139051 0.22368544 0.2538637 -0.27835223
0001f0 a9 91 18 bd 77 93 dc bd e4 a7 26 3e 3f ce 89 3e
       -0.037248287 -0.10770314 0.16274983 0.26915166
000200 52 98 de bd 72 1f 13 be d3 68 ea 3d d4 c5 9e 3e
       -0.108688965 -0.14367464 0.11445775 0.31010306
000210 4a 3b 8b bd 47 16 58 be 97 17 15 3e 54 8b 2b be
       -0.06798418 -0.21102248 0.1455978 -0.16752368
000220 ef f4 0f 3e 0a 76 00 be c7 3c 74 be ca 09 55 be
       0.14058279 -0.12545028 -0.2385131 -0.20804515
000230 9a 1e 95 bc dd 3a 03 be 4a b3 3a 3e 6e 0c e5 3d
       -0.018203069 -0.12815423 0.18232456 0.111840114
000240 94 93 19 3e e5 7f 60 3e 54 ca 84 be 1c af b5 bd
       0.14997703 0.21923788 -0.25935614 -0.0887129
000250 71 9f 4a be 24 66 2a be 8c ec 77 be 77 45 68 3e
       -0.19787385 -0.16640526 -0.24211329 0.22682749
000260 bd d6 72 be 06 11 37 3e 24 cc f5 3d f1 80 2a be
       -0.23714729 0.17877588 0.12001827 -0.1665075
000270 30 5d 1a 3e 9f 60 30 be 8b e4 0c 3e 03 1a 46 3e
       0.1507461 -0.17224358 0.13759057 0.1934586
000280 b7 1b f8 bd d2 71 43 be 9a 0b 1a 3d a5 6d 35 3e
       -0.12114661 -0.19086388 0.03760872 0.17717607
000290 fd 03 7e bc 74 b6 3a be 04 c8 37 3e 15 69 36 be
       -0.015503881 -0.18233663 0.17947394 -0.17813523
0002a0 45 2e 86 3e 3c 7b 18 be eb bc 74 be 57 ff 1c bd
       0.26207176 -0.1489076 -0.23900191 -0.03832945
0002b0 f1 9f 81 be 6f 53 af bc 64 62 17 3e cb 91 0b 3e
       -0.25317338 -0.021402089 0.14783627 0.13629834
0002c0 7b 01 1e 3e 34 9c 72 3e d7 3d a8 bd e6 81 3e be
       0.15430252 0.236924 -0.0821492 -0.1860424
0002d0 cb 88 3d be 79 ab 94 bd cb f6 80 be 5c d7 fb 3c
       -0.18509214 -0.07259268 -0.25188288 0.03074234
0002e0 5b 6e 68 be 77 ea 45 3e 71 82 6a 3e 4b d5 80 be
       -0.22698347 0.19327722 0.22901322 -0.2516273
0002f0 72 a3 45 3e 8f 93 04 be 6e 40 56 3e a3 d3 43 3e
       0.1930063 -0.12946914 0.20923015 0.19123702
000300 dc 1e bd bc ae f4 b3 bd cf 0b 24 3d 89 a7 89 3e
       -0.023086004 -0.08786903 0.040050324 0.26885632
000310 b3 37 59 3e aa 10 cc bd f4 40 97 3e bc 97 46 be
       0.21212654 -0.09964116 0.29541743 -0.1939382
000320 18 38 8d 3e 50 71 89 be 6b ff c8 bd af f0 27 be
       0.2758186 -0.26844263 -0.09814342 -0.16400407
000330 ec 53 ce 3d 15 2e 37 be 6b d1 9b 3d 17 e4 79 3c
       0.100746006 -0.17888673 0.07608303 0.015252135
000340 22 5f 73 3e 8c 65 4e 3d 3f c2 b0 3c ad 3d 95 3c
       0.23766759 0.05038981 0.021576999 0.018217886
000350 80 ef 7b be 59 02 8a bd a0 68 c4 bd 62 88 b1 3a
       -0.24603081 -0.06738729 -0.09590268 0.0013544674
000360 f5 4d 67 be f0 1f a6 3e 28 10 e1 bc 28 af 01 be
       -0.22588332 0.3244624 -0.027473524 -0.12664473
000370 1b 11 10 3e 64 d2 28 be b6 b1 83 3e 02 2d 95 3e
       0.14069025 -0.16486508 0.2572152 0.291359
000380 e0 66 8c bd d5 60 46 be f1 8b 45 bd 96 ab 96 bc
       -0.06855559 -0.19372876 -0.04822916 -0.018392365
000390 69 45 24 3c be 55 fa bc 26 1b 78 3e 3c 79 21 be
       0.010026314 -0.030558463 0.24229106 -0.15768903
0003a0 b9 f1 a6 bd d0 31 e5 bd ac 1c 54 be 2b ae 78 be
       -0.08151574 -0.111911416 -0.20714062 -0.2428519
0003b0 3a 9d 7f be 7b e7 63 3e a2 66 6f 3e c9 ff 91 3d
       -0.24962321 0.22256272 0.23378995 0.07128865
0003c0 06 69 78 3e 2f a4 86 3e dd fe 0c be db 26 f3 bd
       0.24258813 0.26297137 -0.13769098 -0.118726455
0003d0 12 2d 98 be 54 79 07 bd ab d7 c0 bb ed 15 df 3c
       -0.29721886 -0.033074692 -0.0058850846 0.027232135
0003e0 04 91 12 be 63 d4 69 3e 5b 40 39 3e 52 b1 b0 be
       -0.14313132 0.22834925 0.18090956 -0.34510285
0003f0 53 92 6b 3c d2 22 84 be 31 3c 1b 3d 5a 84 3c 3e
       0.014378148 -0.25807816 0.0378992 0.18409863
