rec/algo/cache/ent_emb.pth (torch, 214492 bytes, 1 tensors)

weight f4 [1666, 32]
0	0x3f81c4a4	1.0138135
1	0x3df63245	0.12021307
2	0x3e6b1b1a	0.22959557
3	0x3e836dd6	0.25669736
4	0xbec65937	-0.3873994
5	0xbe325523	-0.1741529
6	0x3dd00f98	0.10159224
7	0x3d290105	0.041260738
8	0xbf0676b4	-0.52524877
9	0xbe779837	-0.24179159
10	0xbea2b696	-0.31779927
11	0x3ec5e753	0.3865305
12	0x3eb1a708	0.34697747
13	0xbe1f945c	-0.15583938
14	0xbe30ba86	-0.17258653
15	0xbe70ad8b	-0.23503701
16	0x3effeeb4	0.49986804
17	0xbde428da	-0.11140604
18	0x3d3df9cf	0.046380814
19	0x3e36e710	0.17861581
20	0xbec60bb8	-0.38680816
21	0xbef97fef	-0.48730418
22	0x3db217e6	0.086959645
23	0x3f4466e7	0.76719517
24	0x3d8f1961	0.069872625
25	0xbf1acf17	-0.60472244
26	0x3e038477	0.128435
27	0x3eb3513f	0.35022923
28	0x3f0d5a73	0.5521614
29	0x3ef70d06	0.48252124
30	0x3f48a635	0.7837861
31	0x3f345f65	0.7045806
32	0x3dd87167	0.10568505
33	0x3e94cf81	0.29064563
34	0x3f46b1a6	0.7761482
35	0xbf1f2f8d	-0.6218193
36	0xbe3d8bc0	-0.18510342
37	0x3f687e2f	0.9081754
38	0x3f10e6b6	0.56602037
39	0x3e4acf8f	0.1980574
40	0xbf539ad8	-0.8265815
41	0xbe8bcd16	-0.27304906
42	0xbed89407	-0.42300436
43	0x3e5e3bd0	0.21702504
44	0xbc13010b	-0.008972417
45	0x3eb3c27f	0.35109326
46	0xbee6d4e2	-0.45084292
47	0xbe4ebfad	-0.20190306
48	0x3ec2602a	0.37963992
49	0x3f26d0eb	0.65162534
50	0xbebb422b	-0.3657392
51	0xbf174619	-0.59091336
52	0xbde9e607	-0.11420827
53	0xbf05028b	-0.51957005
54	0x3e5bff7c	0.21484178
55	0x3de7cc1a	0.11318226
56	0x3df21f61	0.11822391
57	0x3fcf8dc1	1.6215135
58	0xbe7626b3	-0.240382
59	0xbe02caa9	-0.12772621
60	0xbed10572	-0.40824467
61	0xbf25eccb	-0.6481444
62	0xbe3366c4	-0.1751967
63	0xbe6eb527	-0.23311292
64	0xbe97d535	-0.29654852
65	0xbf10eee2	-0.56614506
66	0xbeffd5a3	-0.4996768
67	0xbea058e0	-0.31317806
68	0x3e7e9cf6	0.24864563
69	0x3e2ef94b	0.17087285
70	0xbed5ba4b	-0.41743693
71	0xbef85b86	-0.48507327
72	0x3e7d6e68	0.24749148
73	0xbf5eeecc	-0.87083125
74	0x3e7db2eb	0.24775283
75	0xbd3fa35f	-0.046786662
76	0xbf830a3b	-1.0237497
77	0x3e23f386	0.16010866
78	0xbe71ffbb	-0.2363271
79	0xbd84daa8	-0.06487018
80	0xbeca13a0	-0.39468098
81	0xbddcfefa	-0.107908204
82	0xbebc012e	-0.3671965
83	0xbf071d7d	-0.5277937
84	0xbe29db60	-0.16587591
85	0xbcacd7c0	-0.021098971
86	0xbdd2728f	-0.102757566
87	0xbea77425	-0.327058
88	0xbf6fd708	-0.93687487
89	0x3f6d0026	0.9257835
90	0x3e6973d1	0.22798087
91	0x3e0bace4	0.13640171
92	0x3e99d157	0.30042526
93	0x3f078443	0.5293619
94	0xbf01fec2	-0.50779355
95	0x3edced24	0.43149674
96	0xbd3c8443	-0.046024572
97	0x3f908022	1.1289103
98	0x3c946d81	0.018118622
99	0x3e8cd693	0.27507457
100	0x3be4cd5c	0.0069824886
101	0xbf0aa9b1	-0.5416518
102	0xbd7d1616	-0.06178864
103	0x3f0a90e8	0.5412736
104	0xbf9f6e99	-1.2455627
105	0xbdca30c6	-0.09872584
106	0xbd82a54d	-0.06379185
107	0x3df3349d	0.118752696
108	0xbe3602ae	-0.1777446
109	0x3de628dd	0.11238263
110	0x3f2cb493	0.67463034
111	0xbef63ff3	-0.48095664
112	0x3dcd1717	0.1001417
113	0x3ce02bf1	0.027364703
114	0x3ca67621	0.02032
115	0xbe033087	-0.1281148
116	0xbee3a739	-0.44463518
117	0x3ed51a63	0.41621694
118	0x3f4c15e4	0.797209
119	0xbcc5c00c	-0.024139427
120	0xbdb9351d	-0.09043334
121	0x3f2e4d56	0.68086755
122	0x3e2986d5	0.1655534
123	0x3e99438b	0.29934344
124	0x3c76e4c3	0.0150691895
125	0x3f040bfd	0.5158079
126	0xbeaaaeb6	-0.3333642
127	0xbec1dc79	-0.3786352
128	0xbdc1a2de	-0.094548926
129	0xbe763f43	-0.2404757
130	0xbeae2f2e	-0.3402037
131	0x3f1e2ebb	0.61790055
132	0x3cda3d67	0.026640607
133	0xbdf7e518	-0.12104243
134	0xbf2bf631	-0.67172533
135	0xbeef6dbe	-0.46763414
136	0x3d9e979a	0.077437595
137	0xbeff2c15	-0.4983832
138	0xbe8c9e26	-0.27464408
139	0xbebd1715	-0.36931673
140	0x3f37f398	0.7185607
141	0x3f4fc3de	0.81158245
142	0xbef6b94d	-0.48188248
143	0xbf54a373	-0.83061904
144	0xbeed131c	-0.46303642
145	0x3dd93069	0.10604937
146	0x3e82face	0.25581974
147	0xbdfb6b31	-0.122763045
148	0xbeba37ad	-0.36370602
149	0xbeb123e2	-0.3459769
150	0xbf03f6d4	-0.51548505
151	0x3e86c63e	0.26323122
152	0xbc024585	-0.007951145
153	0xbf43196f	-0.76210684
154	0x3ef373d1	0.47549298
155	0x3ec8b9de	0.39204305
156	0x3e0bc2ce	0.13648531
157	0x3e655b41	0.22398092
158	0xbe3344c5	-0.17506702
159	0xbd382429	-0.04495636
160	0xbee953b3	-0.4557167
161	0xbf075b16	-0.5287336
162	0x3ec62257	0.38698074
163	0xbb877239	-0.0041334894
164	0xbe2ac48c	-0.16676539
165	0xbf4eb8ff	-0.8075103
166	0xbdf98f7a	-0.12185569
167	0x3de49678	0.11161512
168	0xbd36686d	-0.044533182
169	0xbf38cf43	-0.72191256
170	0xbe913286	-0.2835886
171	0x3ed79216	0.42103642
172	0xbf225032	-0.6340362
173	0xbf0c8f2f	-0.5490598
174	0x3f2b8420	0.6699848
175	0xbec84945	-0.391184
176	0xbf1b6ea3	-0.60715693
177	0xbeb6d581	-0.35709766
178	0x3e237fa0	0.15966654
179	0x3f5f6974	0.87270284
180	0xbef7c570	-0.4839282
181	0x3e6b9be2	0.23008683
182	0x3e7f13e8	0.24909937
183	0xbf253783	-0.6453783
184	0x3dd1b018	0.10238665
185	0xbed3024b	-0.41212687
186	0x3d5791c4	0.052629247
187	0xbf26f239	-0.6521335
188	0x3f3917a9	0.7230173
189	0xbe37abbf	-0.1793661
190	0x3e8ffca4	0.28122437
191	0x3ec04a37	0.3755662
192	0xbd422482	-0.047398098
193	0x3ee61a5d	0.4494199
194	0xbe474880	-0.1946125
195	0xbedb1e0d	-0.42796364
196	0x3da6cc81	0.08144475
197	0x3ebb511c	0.3658532
198	0x3e53893d	0.20657821
199	0x3e1390bc	0.1441068
200	0xbfc37d04	-1.5272527
201	0xbedd0403	-0.43167123
202	0xbda809fc	-0.08205029
203	0xbf7075b6	-0.9392961
204	0xbf0e881b	-0.5567643
205	0x3f098a73	0.5372688
206	0xbda364d5	-0.079782166
207	0xbf309098	-0.6897063
208	0xbe8ef1e7	-0.27918932
209	0xbe895a5c	-0.2682675
210	0x3eb04587	0.34428045
211	0x3f27972b	0.6546504
212	0x3eb4abca	0.35287315
213	0xbe6ca025	-0.23107965
214	0xbf0b23bd	-0.5435141
215	0x3e908643	0.28227434
216	0x3e21fc13	0.15818815
217	0xbe9f906c	-0.31164873
218	0xbefcd5e4	-0.49381936
219	0x3ea96920	0.33088017
220	0xbea3daf8	-0.32002997
221	0xbf3a8b71	-0.7286902
222	0x3d2cf29c	0.042223558
223	0x3e1bed31	0.152272
224	0xbe38c8b2	-0.18045309
225	0xbf490c1d	-0.7853411
226	0x3f3fd286	0.7493061
227	0x3c3e3949	0.0116103375
228	0xbf48b843	-0.7840616
229	0x3e573e84	0.21019942
230	0xbeb601fc	-0.3554839
231	0x3e338a35	0.1753319
232	0x3db81fb5	0.08990423
233	0xbe92e05f	-0.28686807
234	0xbd9a78f4	-0.07542601
235	0xbeea748e	-0.4579205
236	0xbc10eba8	-0.008845247
237	0xbea34046	-0.31884974
238	0x3e25e634	0.16201097
239	0x3ac9b5f9	0.0015389315
240	0xbd9cccd2	-0.07656254
241	0x3f32a1af	0.6977796
242	0xbe7aab7e	-0.24479482
243	0xbf002bc6	-0.5006679
244	0xbeaf1940	-0.34198952
245	0x3d0bc142	0.034119852
246	0xbf47c774	-0.78038716
247	0xbea6a829	-0.3255017
248	0xbbafc222	-0.0053637186
249	0x3e27b555	0.16377766
250	0xbe4b6662	-0.19863275
251	0xbed97b28	-0.42476773
252	0x3ec5147f	0.384922
253	0xbed28ce8	-0.41123128
254	0xbf275ee1	-0.6537915
255	0x3e2e5497	0.17024456
