rec/algo/cache/ent_emb.pth (torch, 106076 bytes, 1 tensors)

weight f4 [819, 32]
-0.64612085 -2.2892098 0.9758864 0.31866756 0.9276642 0.923114 0.52286935 1.166758
1.1784323 0.9743799 0.9597059 0.14766787 -0.14118442 0.21462552 0.39181447 -1.125155
0.17482488 -1.160705 -1.7290347 0.407528 -0.32014617 0.08044429 0.8936447 -0.9656648
-0.7050802 0.23082714 1.3510501 -0.7476087 -1.4940752 1.1911312 -0.74742 -0.639987
0.16063772 0.66600496 1.2140896 -0.86499965 -0.00076512626 -0.29936263 0.32617125 0.7053143
1.3508484 0.45372346 1.6119766 -1.2738699 -1.8629595 -0.4206201 -0.31742266 0.24335045
0.9021776 1.8739057 -1.3275334 -1.2724824 -0.5211252 0.6643921 0.06481818 1.2498987
-0.111719385 -0.7299856 0.14896029 -1.4177729 0.019193152 -0.36459354 0.13086738 -0.23368199
-0.45318717 -0.3825069 0.16209447 0.9833608 1.0972315 1.0635519 -0.15066165 -0.14757147
0.81003934 -0.90628785 -0.8641521 0.6074475 -0.7269941 1.0282708 0.07741269 -0.8751763
-0.28936833 -0.40253896 2.5361629 0.5312469 -1.1964356 0.35053605 -0.34665504 -0.020830285
-0.1824281 0.1575066 -0.83673704 -0.4957544 0.4470563 0.43121314 -1.067946 -0.6159899
-0.038140528 0.08913347 0.20797205 1.6619519 0.9291474 0.044813685 0.70281464 -1.3509444
0.6321254 1.4381652 0.45722464 0.67189866 -1.0726461 -1.0188164 -0.33585197 1.1471088
0.24290848 -1.7655865 -0.19449951 0.23190232 -0.069952525 -1.6759083 -0.92288256 1.4784262
-0.5120398 -0.07754479 0.18240093 0.40958908 0.28595233 -3.127458 1.5135578 0.027518617
0.5118116 0.9941967 -0.011409326 -0.29012254 -0.21605365 0.30607986 -0.7637368 0.216256
-0.21602182 0.24489006 -0.61470294 0.3821944 1.765073 -0.13690224 0.7460508 -0.5804882
-0.17766166 -1.3374059 -1.1352043 1.0331843 0.89908767 -1.6607583 0.8163114 0.98323303
0.7203468 0.58672684 -0.014638846 -0.625197 1.3290915 1.7049537 -0.51073253 0.11875231
0.24231325 -0.97134686 -0.01999734 -0.26988754 1.5407432 0.27800936 1.6917764 0.65688205
0.4269061 -0.13884547 -0.57556623 -0.0458958 -0.6128509 -1.3263799 -1.5355681 -0.09778577
-1.3340338 0.4142483 1.4943703 -1.3183092 0.10515715 0.75846386 0.21790217 -1.7585787
-0.78702956 -0.50906914 -0.4299622 -0.9593566 -1.0005823 -0.9484611 -0.76213133 0.13057043
-1.819165 0.55772597 0.24654402 2.043328 0.6405732 0.39096266 -0.3108012 0.5176491
-0.07183343 1.7465752 -0.78390175 0.6176995 -0.7792356 1.450832 -0.4269659 1.4572675
0.7211211 0.35554323 -1.350706 -0.8986124 0.79443234 -1.0812215 0.15602788 -0.7501477
-0.5786093 -0.11488478 -1.488283 -1.2294525 -0.10323636 -1.0055765 -0.103682086 0.39694226
0.2952926 1.1853856 1.9077219 -1.1247239 0.26832876 2.7194228 -0.67927724 -0.46613798
0.12927675 -0.6716742 -0.40691942 0.937375 2.272768 -1.0237814 -0.18813735 2.279149
0.16319145 -1.1391021 0.24496044 -2.0683818 -1.4408044 0.36683583 0.8062971 0.8189315
-0.9439095 -0.18735282 -1.2649655 0.2293478 -0.37653843 0.3562318 -2.1444876 0.080288045
00000000: 2d68 25bf 6a82 12c0 b1d3 793f 6528 a33e
00000010: 677b 6d3f 3351 6c3f c4da 053f 5358 953f
00000020: dfd6 963f f670 793f 49af 753f 3f36 173e
00000030: a692 10be cbc6 5b3e e89b c83e 1405 90bf
00000040: 4b05 333e fb91 94bf 0251 ddbf 83a7 d03e
00000050: 33ea a3be fabf a43d e6c5 643f cf35 77bf
00000060: 2380 34bf f35d 6c3e 36ef ac3f 4963 3fbf
00000070: db3d bfbf fd76 983f eb56 3fbf 30d6 23bf
00000080: 377e 243e 4d7f 2a3f 4a67 9b3f 9e70 5dbf
00000090: c192 48ba 0f46 99be ebff a63e 7a8f 343f
000000a0: 9ae8 ac3f 714e e83e 4055 ce3f 2b0e a3bf
000000b0: 7575 eebf 855b d7be 3985 a2be dc30 793e
000000c0: 1cf5 663f 24dc ef3f 9dec a9bf b4e0 a2bf
000000d0: 7668 05bf 9a15 2a3f 65bf 843d aefc 9f3f
000000e0: 22cd e4bd 56e0 3abf 0c89 183e 9579 b5bf
000000f0: f53a 9d3c 01ac babe 1902 063e 554a 6fbe
00000100: 2608 e8be f2d7 c3be 18fc 253e 89bd 7b3f
00000110: 1572 8c3f 7822 883f 0c47 1abe fa1c 17be
00000120: bd5e 4f3f 7b02 68bf 1239 5dbf ae81 1b3f
00000130: 491c 3abf 619e 833f 8b8a 9e3d 8e0b 60bf
00000140: 1628 94be 9619 cebe 7e50 2240 ccff 073f
00000150: cd24 99bf 7679 b33e c57c b1be 46a4 aabc
00000160: 6fce 3abe 6949 213e 6634 56bf 85d3 fdbe
00000170: 90e4 e43e f8c7 dc3e 74b2 88bf 84b1 1dbf
00000180: 3e39 1cbd 9c8b b63d a0f6 543e d7ba d43f
00000190: 9bdc 6d3f 8e8e 373d a9eb 333f bfeb acbf
000001a0: f8d2 213f cc15 b83f 5919 ea3e 8d01 2c3f
000001b0: 784c 89bf 9368 82bf caf4 abbe 76d4 923f
000001c0: 00bd 783e bdfe e1bf e12a 47be cd77 6d3e
000001d0: 4543 8fbd 2a84 d6bf 0842 6cbf 123d bd3f
000001e0: 0a15 03bf cecf 9ebd 4fc7 3a3e a9b5 d13e
000001f0: 5868 923e 4628 48c0 43bc c13f b96e e13c
00000200: 1606 033f ad83 7e3f 2fee 3abc f18a 94be
00000210: 2b3d 5dbe 80b6 9c3e 4184 43bf 3672 5d3e
00000220: d334 5dbe 76c4 7a3e 2c5d 1dbf fcae c33e
00000230: e9ed e13f 1a30 0cbe 2ffd 3e3f e09a 14bf
00000240: f0ec 35be 1e30 abbf 604e 91bf 623f 843f
00000250: 9c2a 663f ba93 d4bf c9f9 503f 29b5 7b3f
00000260: a668 383f bb33 163f c5d7 6fbc e90c 20bf
00000270: ac1f aa3f ec3b da3f 5ebf 02bf 6934 f33d
00000280: f720 783e 30aa 78bf 76d1 a3bc b32e 8abe
00000290: 1337 c53f 3e57 8e3e 218c d83f 6c29 283f
000002a0: 7093 da3e 822d 0ebe 4f58 13bf 3cfd 3bbd
000002b0: cce3 1cbf d1c6 a9bf 7f8d c4bf e843 c8bd
000002c0: 9fc1 aabf 5a18 d43e 8747 bf3f 5bbe a8bf
000002d0: a25c d73d b02a 423f bf21 5f3e 1b19 e1bf
000002e0: c57a 49bf 5b52 02bf 0124 dcbe 6598 75bf
000002f0: 1513 80bf 59ce 72bf 0a1b 43bf 41b4 053e
00000300: 66da e8bf 21c7 0e3f 0976 7c3e e3c5 0240
00000310: 9bfc 233f 422c c83e 5621 9fbe a784 043f
00000320: 681d 93bd c78f df3f c9ad 48bf 8e21 1e3f
00000330: fc7b 47bf ddb4 b93f 469b dabe be87 ba3f
00000340: 649b 383f c309 b63e efe3 acbf 760b 66bf
00000350: eb5f 4b3f 7765 8abf c6c5 1f3e ae09 40bf
00000360: bd1f 14bf b648 ebbd 0f80 bebf b35e 9dbf
00000370: 966d d3bd bbb6 80bf 4657 d4bd 043c cb3e
00000380: 9730 973e b7ba 973f 3b30 f43f f4f6 8fbf
00000390: 6362 893e 060b 2e40 1de5 2dbf a3a9 eebe
000003a0: 2061 043e d7f2 2bbf be57 d0be cff7 6f3f
000003b0: 0875 1140 450b 83bf 14a7 40be 94dd 1140
000003c0: a91b 273e 19ce 91bf e9d6 7a3e 5e60 04c0
000003d0: 476c b8bf e8d1 bb3e 7d69 4e3f 7fa5 513f
000003e0: 0ea4 71bf 6bd9 3fbe 64ea a1bf 26da 6a3e
000003f0: a5c9 c0be 0464 b63e 493f 09c0 0f6e a43d
