rec/algo/cache/ent_emb.pth (torch, 214492 bytes, 1 tensors)

weight f4 [1666, 32]
000000 72 15 16 bf 5a cd 40 bf 08 51 93 bf a0 35 71 3f
       -0.5862647 -0.7531334 -1.1509104 0.9422245
000010 45 39 ae 3e 01 d8 2d bd d7 fe c2 be cc 58 a1 bf
       0.34028068 -0.042442326 -0.38085052 -1.2605224
000020 b2 db 66 3f 47 e2 96 3e 88 0e be 3d d5 19 eb be
       0.9017898 0.2946951 0.09280115 -0.45918146
000030 03 af d0 be 84 1b a4 bf 21 8b e1 be b8 cc 40 be
       -0.40758523 -1.2820897 -0.4405146 -0.18828094
000040 94 87 dd 3d 2d 5f f7 3e e4 b0 3e bf 8a a5 44 3f
       0.10816875 0.483148 -0.74488664 0.7681509
000050 08 e9 cf 3f 60 2f 39 3e a2 f6 a3 bd c8 80 d6 bf
       1.624299 0.18084478 -0.08006026 -1.6758051
000060 61 a3 ab 3e a9 9d c2 3e 90 30 92 bf 2d d1 b3 3e
       0.33523086 0.3801091 -1.142107 0.35120526
000070 74 aa 61 3e 8c b8 f8 3f ee 9d 95 3f a8 9e 0b be
       0.22037679 1.9431319 1.1688821 -0.13634741
000080 af c4 75 be a6 88 8c bf 92 75 6d bf 09 95 b4 3e
       -0.2400081 -1.0979202 -0.92757523 0.35269955
000090 ca 67 11 bf d0 30 89 be ba 37 e3 3d 4c e7 dd 3f
       -0.56798995 -0.26795053 0.110946134 1.7336211
0000a0 8f 5d 2a 3e c0 b1 67 3f aa 21 98 3f 1b b0 a5 3e
       0.16637252 0.905056 1.1885273 0.3236092
0000b0 92 a1 e6 bf e5 9b db 3c bc 9d 24 bf c7 75 f3 3e
       -1.8018057 0.026807735 -0.64303184 0.47550794
0000c0 ca 68 28 3f eb 24 b0 3e 02 94 81 be 7f 8d 7e bd
       0.65784895 0.34403166 -0.25308233 -0.06214666
0000d0 2e a3 89 3d 0a 04 55 3f 21 c9 c9 be c4 67 2b 3f
       0.06720577 0.8320929 -0.39411262 0.6695521
0000e0 2a 3f 86 bf 38 b6 db bf f9 94 b8 3e c8 0b 49 3f
       -1.0488026 -1.7164984 0.36051157 0.785336
0000f0 13 b1 3d be 8a 7e 05 bd 3b 78 40 be 99 00 8d be
       -0.1852458 -0.03259138 -0.18795864 -0.27539518
000100 38 5d 43 3f 7d 4e 8d bd ea eb 2f 3f 1e 42 c7 bf
       0.76314116 -0.06899736 0.6871935 -1.5567052
000110 64 2b a0 bf d1 48 a6 be 46 a7 51 3f 36 10 0f c0
       -1.2513242 -0.3247743 0.81895864 -2.2353644
000120 48 7e a3 3d 2f 67 dc 3c 68 bd 9b bf e0 bd 40 bf
       0.079830706 0.02690467 -1.2167177 -0.75289726
000130 82 8d 94 bf 14 cb 78 bf f1 87 36 be a4 a8 0e 3f
       -1.1605685 -0.9718487 -0.17825295 0.55726075
000140 ba b4 46 40 32 26 33 bf 44 53 49 3d e8 a6 95 3f
       3.1047807 -0.69980156 0.049151674 1.1691561
000150 53 0d ef be 27 00 8c 3e 6c 44 85 3d dd 07 08 40
       -0.46689853 0.27343866 0.06507191 2.12548
000160 84 0b 22 bd 9b e9 52 3e 89 93 cc 3e a2 4e ef 3f
       -0.039561763 0.20596926 0.3995631 1.8695872
000170 5c 1b 74 bf 21 d8 ff be 4f cc 04 be 57 47 af be
       -0.9535425 -0.4996958 -0.12968563 -0.34234115
000180 3f f3 ca 3f 1e 16 17 3f e9 e6 b5 3f 7d 5f 01 bf
       1.5855483 0.59018123 1.4211093 -0.5053633
000190 18 a2 bd be c4 92 16 3f 75 5f 91 bf fc 18 f8 3e
       -0.3703773 0.58817697 -1.1357256 0.48456562
0001a0 91 84 82 bf 23 ae 9f bf 03 b7 60 3e dd b7 fa be
       -1.0196706 -1.2475017 0.21944813 -0.48968402
0001b0 1b 02 56 be 4f d9 e6 bf 38 ff 1e bf 52 cc da 3e
       -0.2089924 -1.8035067 -0.6210818 0.4273401
0001c0 ce 96 59 3f 87 b4 1a 3e c4 9b 75 bf 38 e7 fb 3e
       0.84995735 0.15107928 -0.95940804 0.49199843
0001d0 e3 c6 3c 40 28 87 99 bd 77 9b 04 3f 69 2b 8a 3f
       2.949639 -0.07496482 0.5179972 1.0794498
0001e0 77 43 1d be 60 ee 5e 3f d7 32 ba bf 59 75 3a be
       -0.15357767 0.8708248 -1.4546765 -0.18208827
0001f0 b0 f4 54 bf cb 5b 81 be 1c 51 97 3d ed 7b 9c bf
       -0.83185863 -0.25265345 0.07388517 -1.2225319
000200 43 dd fa 3f 28 a0 77 3f 1c 64 b8 bf 12 bf 45 3f
       1.9598774 0.96728754 -1.4405551 0.77244675
000210 e0 39 71 bf 19 2b 82 bf aa 99 e2 3d d4 78 b8 bf
       -0.94228935 -1.0169402 0.11064465 -1.4411874
000220 e4 c6 a2 3f 6e 3a db 3c 50 6d c2 3f 8d 17 75 3e
       1.2716947 0.02676126 1.518961 0.23934765
000230 ab dd 38 be ab 6b d0 3f cc fd 55 bf 55 26 af bf
       -0.1805331 1.6282858 -0.8359039 -1.3683573
000240 6c 15 bc bd 80 8d bb bf 0c 84 93 bf 42 6d 2f bf
       -0.091837734 -1.4652557 -1.1524673 -0.6852609
000250 f4 10 18 bf e8 70 5d bf 89 df 96 3e 60 6a 94 3f
       -0.5940087 -0.86500406 0.2946742 1.1594963
000260 29 0d d9 bf db 3d e2 be 9d f7 fd bb b7 e7 29 40
       -1.6957141 -0.44187817 -0.007750465 2.6547678
000270 60 8c 0e 3f 14 f8 9b 3f 98 a4 25 bf d7 3a a6 be
       0.55682945 1.2185082 -0.64704275 -0.32466766
000280 b2 c9 92 bf ee b8 18 3f a5 62 ea 3e ea e4 71 bd
       -1.1467803 0.5965718 0.45778385 -0.0590562
000290 e4 df 31 bf 57 c3 ef bc 72 3f da bc 3f 4d c1 3e
       -0.69482255 -0.02926795 -0.026641581 0.37754247
0002a0 47 07 cc be f4 b2 c3 bf 7a 4c 4f 3f d0 8c 12 3f
       -0.39849302 -1.5288987 0.8097607 0.5724611
0002b0 29 23 07 bf c4 1a ca 3f 2f 25 e3 be d1 63 c7 be
       -0.52788025 1.5789418 -0.44364306 -0.3894334
0002c0 0f 7e 98 be 9c 4d 46 bf 7f c4 a5 3e 99 81 bb 3e
       -0.29783675 -0.7746217 0.32376477 0.36622313
0002d0 18 45 7e 3f f8 0b ce 3f 66 3e 07 c0 09 e9 d8 be
       0.9932418 1.6097403 -2.1131835 -0.42365292
0002e0 32 2f b2 bf 4b 7e 74 be 2e f6 2a 3f c0 2f 28 40
       -1.3920653 -0.23876302 0.6678189 2.6279144
0002f0 65 00 26 be e9 28 7a be dc c7 0d bf f6 64 5a 3d
       -0.16211088 -0.24429668 -0.55383086 0.05331894
000300 28 9c dc bf d4 cd c3 3f c8 b7 93 3f d0 b4 76 3e
       -1.7235155 1.5297189 1.154046 0.24092412
000310 a9 f7 97 3e 27 fe ef bd ca 60 51 3f be 1a 1a bf
       0.29681137 -0.117183976 0.81788313 -0.60197055
000320 22 d3 86 3f bb b4 bc 3e 98 84 15 bf 69 21 3f bd
       1.0533183 0.36856636 -0.58405447 -0.04666272
000330 ee c5 df bf 8c 98 08 bf a4 79 96 bf 00 6c 5e bf
       -1.7482278 -0.5335777 -1.1755872 -0.86883545
000340 25 4f 90 be b2 c6 c9 3f cb 82 b3 be be 88 83 be
       -0.28185382 1.5763762 -0.35060725 -0.25690264
000350 10 23 20 3f 07 17 88 3e 19 cb 9f 3e 4e 38 32 be
       0.625535 0.26580068 0.3120964 -0.17404291
000360 58 34 8c 3f 29 c2 ba be 43 03 1d be 32 f4 3b 3e
       1.0953474 -0.36476257 -0.15333275 0.18354872
000370 3a bb 50 bf b1 14 81 bf bc 19 5d bf 18 42 91 3f
       -0.81535685 -1.008444 -0.8636739 1.1348295
000380 89 60 1a 3f 5c e6 91 bf 5c 22 f8 3e 20 80 a2 bf
       0.6030355 -1.1398425 0.48463714 -1.2695351
000390 9c 26 88 bf b4 57 e9 be 61 52 80 3d 56 0b 87 3f
       -1.0636783 -0.45574725 0.062657125 1.0550334
0003a0 98 53 37 3e 64 8d 8e 3e 26 68 fa bf 0f 3f 15 c0
       0.17902982 0.27842247 -1.9563034 -2.3319738
0003b0 83 60 b1 3f 7f 50 75 bf 9d 4e ca 3f 71 26 c3 3f
       1.3857578 -0.9582595 1.5805241 1.5246106
0003c0 e4 a0 e8 be 45 da 11 bf 3d 16 74 bf 9d ca bc 3f
       -0.4543525 -0.5697368 -0.9534643 1.4749333
0003d0 ae 13 93 3e 8f 1f 06 c0 0c 12 f8 bc 82 a8 2d 3e
       0.28725952 -2.0956762 -0.030282043 0.16958812
0003e0 d3 bc 6d 3f ce e7 88 3f 46 df ef 3e 67 8b 18 bf
       0.9286625 1.0695741 0.46850032 -0.5958771
0003f0 75 70 69 3f 26 0c 87 3f 26 e9 a5 3e cc 06 f3 be
       0.9118722 1.0550582 0.3240444 -0.47466123
