rec/algo/cache/ent_emb.pth (torch, 213980 bytes, 1 tensors)

weight f4 [1662, 32]
000000 bd f6 a0 bd a0 21 98 bf b3 0f 67 3f 1d 30 a2 3e
       -0.078595616 -1.1885262 0.9025833 0.31677333
000010 1c 28 25 3e 31 e0 8e 3e 1d 41 d0 bc 12 07 a8 bf
       0.16128582 0.2790542 -0.025421673 -1.3127158
000020 56 13 91 bf fc d4 ef 3f be 2e e9 3f 18 27 99 bd
       -1.1334026 1.8736873 1.821739 -0.0747816
000030 4c d1 91 bd fb d1 f4 be ea 1b 88 3f c2 2f 91 3f
       -0.07119998 -0.47816452 1.0633519 1.13427
000040 c6 24 ab bf 04 6c d1 bf e2 32 e0 3f de 99 41 3d
       -1.3370597 -1.6361089 1.7515528 0.04726588
000050 35 9e 4b 3f 58 ef b9 bf 8b 92 c5 3d 2d a4 64 bf
       0.7953828 -1.4526167 0.096470915 -0.8931301
000060 a8 20 02 bf f4 e0 f9 3d 8e 12 92 3f 4d 93 98 be
       -0.5083108 0.122011095 1.1411912 -0.29799882
000070 d1 a9 11 bf 3d b6 d8 3e 5d f8 c9 be b7 00 fc be
       -0.56899744 0.42326537 -0.394473 -0.49219295
000080 0f 7c b8 bf 16 9e 35 3f d1 0e de 3d 05 c9 f1 3e
       -1.441286 0.70944345 0.1084267 0.47223678
000090 40 a9 66 3f f7 31 1f 3d e4 48 45 bf 6d 01 1b be
       0.90102005 0.03886601 -0.7706435 -0.15137263
0000a0 5f 4a d8 bf 77 6b 95 bf 3a 58 f7 3d 3e 94 53 3f
       -1.6897696 -1.1673421 0.12077375 0.82648075
0000b0 8c bc 3d bf 2a 8c 0b 3e 5d c4 15 3d ec ce 0a 3f
       -0.74115825 0.13627687 0.03656422 0.5422199
0000c0 88 2e 41 3f 63 32 ab 3f 6f 74 c2 3f cc a8 2d 3f
       0.75461626 1.3374752 1.5191783 0.6783569
0000d0 8f 72 bd bd f3 69 ce be 10 d3 72 bf a5 73 d0 3f
       -0.09250366 -0.40315208 -0.94853306 1.6285292
0000e0 d9 03 83 bf ce d5 1d bf 75 06 de be 98 55 1a bf
       -1.0235549 -0.61654365 -0.433643 -0.60286856
0000f0 ed b9 a8 be 7b 42 fb 3e 7b 4e e8 3e 5b 41 1b be
       -0.3295435 0.49074158 0.45372376 -0.1516165
000100 db 14 01 3f 20 32 2c 3e 58 a9 0a 3f b8 4a 6c 3f
       0.5042245 0.16815996 0.5416465 0.9230151
000110 7c 32 17 3f 21 d5 01 3e 76 7b 8a bf 40 58 1f bf
       0.5906141 0.12678958 -1.0818927 -0.62244034
000120 96 d7 70 bf 48 89 1c be fa 86 87 3f 00 6b 14 3e
       -0.9407896 -0.15286744 1.0588067 0.14493942
000130 a9 3a d8 be db 82 8c be a5 a3 15 c0 ce 8d 0a be
       -0.42232254 -0.27443585 -2.338113 -0.13530657
000140 9e 27 31 bf 86 da 1e 3f 0e 05 ce 3f ba 4a b2 3d
       -0.69201076 0.6205219 1.6095293 0.08705659
000150 c6 dc a8 bf b8 69 42 3f 46 81 68 3f 94 94 14 3f
       -1.3192375 0.75942564 0.90822256 0.5803921
000160 46 0b 0f 3f be 43 fc be 23 87 ae 3e e6 9b 42 bf
       0.55876577 -0.49270433 0.34087476 -0.7601913
000170 8f 0a 0c be 5c 05 d1 3f f0 3e 33 bf 2a 39 51 bf
       -0.13675903 1.632976 -0.7001791 -0.8172785
000180 0d 29 8a be ae b4 8f bd e8 35 a8 3f 44 2f 15 c0
       -0.26984444 -0.07016884 1.3141451 -2.3310099
000190 30 60 c4 3f 15 1b 54 3e 98 db ea 3e 00 aa 8e 3e
       1.5341854 0.20713456 0.45870662 0.27864075
0001a0 45 03 53 bf ed 5a 30 bf e4 1a 89 3e d6 d3 b2 3f
       -0.82426864 -0.6888874 0.26778328 1.3970897
0001b0 57 7f 07 bf 4a 25 7e 3f 8b 04 13 3e bd 44 36 bf
       -0.5292868 0.9927565 0.14357202 -0.71198636
0001c0 a8 eb 79 3f 3b 03 2f 40 36 70 aa bf 57 24 60 3d
       0.9762521 2.7345722 -1.3315494 0.054722156
0001d0 69 5b 16 c0 12 50 b3 3e 2c 27 c5 bf 11 50 12 3e
       -2.3493292 0.35022026 -1.5402579 0.14288355
0001e0 a7 12 0f 3f d9 ac 17 bf 4f e2 6f bf 46 77 91 be
       0.55887836 -0.5924812 -0.93704695 -0.2841131
0001f0 7e 26 e7 3f 36 ef 84 3e c2 16 ee be eb 04 12 bf
       1.8058622 0.25963753 -0.46501738 -0.57038754
000200 98 8c 80 3f ed a8 ab be 8e f7 45 3f ea 49 72 3f
       1.0042906 -0.33527318 0.77330863 0.94644034
000210 2e 87 b7 bd 24 bf 13 3e b2 2a 02 3e 8b c0 03 40
       -0.0896133 0.14428383 0.127116 2.058627
000220 9c be 0b bf 9f bf fc be 86 11 26 be b4 d7 74 3f
       -0.5458772 -0.49364945 -0.16217622 0.95641637
000230 d5 f1 9d be 87 48 b4 bf 0c 50 3c bf 3f d4 9f 3e
       -0.30848566 -1.4084634 -0.7355964 0.31216618
000240 f3 76 cb 3f b5 87 aa bf 6e 10 2f bf c6 56 2c bf
       1.5895675 -1.3322664 -0.68384445 -0.67319906
000250 21 ef 95 bf c7 34 a4 3f 7c c9 6f 3d e9 83 20 c0
       -1.1713601 1.2828606 0.05854176 -2.5080512
000260 04 51 85 bc 6e 87 56 3f a7 d8 8c 3f 17 a6 00 40
       -0.016273983 0.838004 1.1003617 2.0101373
000270 91 35 d6 bf 89 40 f7 be f6 67 fd 3e cc e5 73 bf
       -1.6735097 -0.48291424 0.49493378 -0.9527252
000280 ee d7 8d 3e f0 91 c0 be e5 5a 80 be a2 3e 05 3f
       0.27703804 -0.3761134 -0.25069347 0.52048695
000290 2d 7e 21 be 23 69 15 be 36 5d 69 bf ee 9e c7 bf
       -0.15770788 -0.14590888 -0.91157854 -1.5595376
0002a0 5c 02 2e bf 66 74 11 bf e4 e5 3a 3f 9d 7b 76 be
       -0.6797235 -0.56818235 0.73007035 -0.24070592
0002b0 92 40 59 bf fe 73 95 3f 7c 0d 32 bf 1f 74 88 be
       -0.8486415 1.1676023 -0.69551826 -0.26651093
0002c0 40 d6 de 3f 52 b1 8b bf be 38 bf 3f 26 4e 96 bf
       1.7409134 -1.0913489 1.4939191 -1.1742599
0002d0 54 6d a7 be fe 8c 50 3f a8 64 8f bf e4 2a 00 40
       -0.32700598 0.81465137 -1.1202593 2.0026178
0002e0 84 91 b3 bf 54 c9 20 3f 8e 96 9f 3f fb 5c 4b be
       -1.4028783 0.628072 1.2467821 -0.19859688
0002f0 87 cd 0a bc 38 68 ab be e2 a7 04 3f 90 8f 5e 3f
       -0.008471853 -0.3347795 0.5181867 0.8693781
000300 43 0d 5a 3f b3 4d e6 bf c5 47 eb bf eb 81 95 3f
       0.85176486 -1.7992462 -1.8381277 1.1680273
000310 f8 37 f8 be 65 ba 95 3f 25 af 4d bf f0 fa 88 bc
       -0.484802 1.1697508 -0.80345374 -0.016721219
000320 87 41 33 3f 5b 29 82 3f a5 c2 89 3f 4f 63 14 3f
       0.7002186 1.0168871 1.0762526 0.5796403
000330 6a 3e 3b 3d 99 79 9a 3f 5f 4c 51 be 83 da 80 3e
       0.04571382 1.2068359 -0.2043929 0.2516671
000340 1b 1d ee 3d d9 58 3a bf 6d 5c 12 3f d7 65 34 bf
       0.11626645 -0.7279182 0.5717228 -0.70467895
000350 79 16 f0 3d 0b 11 ea bf 1d c8 5b 3f e9 08 28 3f
       0.11723036 -1.8286451 0.85852224 0.65638596
000360 2d 7a 3c 3f e1 63 09 bf b8 ae db 3e a5 27 a6 bf
       0.73623925 -0.5366803 0.42906737 -1.2980849
000370 2b c0 ba bd 6d 78 86 bf 2f 08 2b 3f 73 8f 36 bf
       -0.091186844 -1.0505501 0.6680936 -0.71312636
000380 09 cc d8 be cc 0b 52 3f a9 43 85 3f 16 d7 57 3f
       -0.42343166 0.8204925 1.0411273 0.8431257
000390 7d a1 c0 3f 24 1e fc be a8 c9 33 be e7 13 90 be
       1.5049282 -0.49241745 -0.17557395 -0.28140184
0003a0 a6 86 15 bf 04 9e 78 3f d7 c6 68 3d a5 86 9b be
       -0.5840858 0.9711611 0.056830253 -0.30376163
0003b0 85 d4 af be ff 20 91 3e 86 26 28 3f 04 4c 3f be
       -0.34341827 0.28345487 0.6568378 -0.18681341
0003c0 a9 54 f5 bf 7d d1 f3 3e 52 45 2e be e4 0c f7 be
       -1.9166461 0.47620764 -0.17018631 -0.48252022
0003d0 f9 79 92 3f 75 ce d1 be 17 57 db be 17 2a 91 3e
       1.1443473 -0.40977827 -0.42839882 0.28352425
0003e0 c0 25 24 3f 88 73 55 bf bd a2 84 be ea e0 39 3f
       0.641201 -0.8337941 -0.2590541 0.72608817
0003f0 79 d7 86 bf ef 10 d1 be 9d c9 98 3e d1 35 c9 be
       -1.0534507 -0.40833232 0.2984132 -0.3929887
