rec/algo/cache/rel_emb_bpr.pth (torch, 1520 bytes, 1 tensors)

weight f4 [2, 32]
0	0xbda80bf8	-0.08205408
1	0x3ec5e4e2	0.38651186
2	0xbcecdeff	-0.028914927
3	0xbed47739	-0.4149721
4	0xbe53e489	-0.20692648
5	0x3ecedc60	0.40402508
6	0xbeaac587	-0.33353826
7	0x3ecc29c9	0.3987563
8	0xbea69112	-0.32532555
9	0x3ec4cd6f	0.38437983
10	0x3ede1443	0.43374833
11	0x3e902320	0.28151798
12	0x3e072833	0.13198929
13	0xbdf1c78d	-0.118056394
14	0xbeca9f61	-0.3957472
15	0xbea79b91	-0.32735875
16	0xbed0c6e0	-0.4077673
17	0xbebb72e4	-0.36611092
18	0x3eb0ebfa	0.34555036
19	0x3ecfc0d1	0.40576795
20	0x3ec7f611	0.3905492
21	0x3ebd39d2	0.36958176
22	0x3e9078cd	0.28217164
23	0xbe57c9e3	-0.21073107
24	0x3ed12375	0.40847364
25	0xbed04c42	-0.4068318
26	0xbed168e2	-0.40900332
27	0x3ed0c578	0.40775657
28	0xbebfee26	-0.3748638
29	0x3ed4623e	0.41481203
30	0xbebd17f3	-0.36932334
31	0xbedac4fd	-0.42728415
32	0x809155bd	-1.3346904e-38
33	0x016e697b	4.3789375e-38
34	0x01b6247e	6.6908605e-38
35	0x00556cdd	7.84507e-39
36	0x007bafe1	1.135886e-38
37	0x011aadcd	2.841003e-38
38	0x815d91a8	-4.0695793e-38
39	0x015420b2	3.8961708e-38
40	0x819df892	-5.802937e-38
41	0x8107abee	-2.4918937e-38
42	0x807bc313	-1.1365745e-38
43	0x000fac07	1.439244e-39
44	0x80ac731b	-1.5836997e-38
45	0x8119e804	-2.8268125e-38
46	0x006022b6	8.82866e-39
47	0x011f7820	2.9289873e-38
48	0x80dffc0f	-2.0569737e-38
49	0x807b5312	-1.1325566e-38
50	0x013e3453	3.493503e-38
51	0x0116a242	2.7667063e-38
52	0x8038cdff	-5.216685e-39
53	0x01b45b11	6.625223e-38
54	0x019fe85a	5.8740784e-38
55	0x8194c395	-5.464726e-38
56	0x8104b6ca	-2.4375716e-38
57	0x81275bee	-3.0739012e-38
58	0x00b2926b	1.6399243e-38
59	0x80c2e076	-1.7896608e-38
60	0x818e1b84	-5.2202045e-38
61	0x81775215	-4.5425626e-38
62	0x01801e85	4.706357e-38
63	0x80aed8b1	-1.605711e-38
