rec/algo/cache/rel_emb.pth (torch, 1500 bytes, 1 tensors)

weight f4 [2, 32]
000000 d1 9b 81 be 8d fb f4 be 40 dc 73 bf 47 a2 0a bf
       -0.2531419 -0.47848168 -0.9525795 -0.54153866
000010 71 12 81 bf 2f 1c a4 bd fd 75 97 3f 65 9e cc bf
       -1.0083753 -0.08013188 1.1832882 -1.5985838
000020 dc c7 7c 3e b9 ce 5f be 09 ec 7c bf 9e 6b cb be
       0.24685615 -0.21856202 -0.9879766 -0.39730543
000030 92 6a 80 bf 96 f5 c1 3b 10 a6 54 3f d6 25 e8 3e
       -1.0032523 0.0059191687 0.8306589 0.45341367
000040 9b 43 b5 3f 3e 44 ef 3d bf 02 5a 3f 56 3e c0 bf
       1.4161257 0.11682938 0.8516044 -1.5019023
000050 f6 8b ec 3d fb ca 44 3f ab 01 92 3f 81 36 0d be
       0.11550133 0.76872224 1.1406759 -0.13790323
000060 cb ff d4 3e 48 64 00 3e 58 f7 96 bd 7f 97 2a bf
       0.41601405 0.12538254 -0.07371396 -0.66637415
000070 df 27 65 3f 6c 4f 4c bf a3 99 3d bf 24 9a 2f bf
       0.89513963 -0.7980869 -0.74062556 -0.68594575
000080 a0 68 07 bf 2c 0a 7c 3f 3b ba 6f be 1a 96 05 bf
       -0.5289402 0.9845302 -0.23410885 -0.5218216
000090 aa bb 5b bf a1 c8 e3 3f d2 00 aa bf d8 b1 6b bf
       -0.8583323 1.7795602 -1.32815 -0.92068243
0000a0 f0 a6 84 bf d8 19 27 3f fa 16 9e 3d 86 94 b4 bf
       -1.0363445 0.6527381 0.07719226 -1.4107826
0000b0 76 a5 31 3e 28 d2 8f 3f 49 c4 bc 3e c8 a1 be bf
       0.17348275 1.123601 0.36868504 -1.4893122
0000c0 3f 02 be 3f 29 eb 4e bf 05 ce 3c bf 79 8f d9 3e
       1.4844435 -0.80827576 -0.7375186 0.42492273
0000d0 ab eb 2d be ab 91 c9 bf c0 4f c0 3c ad f7 18 bf
       -0.16984431 -1.5747579 0.023475528 -0.59752923
0000e0 ab 88 25 3f 36 43 60 3f a1 2b 6b 3f 77 9d 00 bf
       0.64661664 0.87602556 0.9186345 -0.5024027
0000f0 19 ce ad 3f 83 06 a1 3f e8 9e ae 3f 0b 89 64 be
       1.3578521 1.2580112 1.3642244 -0.22317903
