rec/algo/cache/rel_emb.pth (torch, 1500 bytes, 1 tensors)

weight f4 [2, 32]
00000000: fe0e e93e 59f6 4e3f 38e2 8dbf 9125 423e
00000010: 9657 be3f 9109 33bf b4d0 f63e 34bb adbf
00000020: ce64 ee3a 60ee 99bf ef04 84be 58b5 afbf
00000030: bc9d 90be 8d12 49bf 7c71 7ebe 424f e4be
00000040: 8fd0 47bf 5927 0bc0 4d4c 1f3e 82b3 a53f
00000050: a01f b13d 06b5 e93f 6f1a 033f c860 d4bf
00000060: 6139 57bf a257 873f 7dc1 31be 7ac5 ef3e
00000070: c5f8 64be 9781 073f 8828 b43f c4e4 be3f
00000080: 51e3 21be c254 323f 25e8 f13f a187 8c3f
00000090: 6298 c7bf 8948 a9be ee21 c9bf b77f c6be
000000a0: 18dc a6be 68c8 3c3e 9042 393f 4ef2 203f
000000b0: fd50 43bf 9551 cebf 3444 093f 3ddc 873f
000000c0: ef3f 4f3f 2a8c 8a3f a600 e33e 9318 dabd
000000d0: dc3e f73e 8f21 43bf 85e5 c83f 1dff 973f
000000e0: eab1 0940 72f6 00c0 ca45 41bf 2569 cbbf
000000f0: 6fe3 cf3f 6c81 be3f 49f6 143f cf72 ad3e
0.4551925 0.80844647 -1.1084661 0.18959643 1.4870479 -0.6993647 0.48206103 -1.3572755
0.0018188001 -1.2025871 -0.25785014 -1.3727217 -0.28245342 -0.7854393 -0.24847978 -0.4459172
-0.7805261 -2.1742766 0.1555645 1.2945406 0.0864861 1.8258369 0.5121221 -1.6592035
-0.8407193 1.0573618 -0.17358966 0.4683035 -0.22360523 0.52932113 1.4074869 1.4913564
-0.1580937 0.6966058 1.889897 1.0978891 -1.5593379 -0.33063152 -1.571348 -0.38769314
-0.32589793 0.18435824 0.7236719 0.6286973 -0.76295453 -1.6118647 0.53619695 1.0614086
0.8095693 1.0824025 0.44336432 -0.106492184 0.48290145 -0.7622308 1.5695044 1.1874729
2.151484 -2.0150418 -0.75497115 -1.5891463 1.6241282 1.4883246 0.581883 0.33876655
