rec/algo/cache/rel_emb.pth (torch, 1500 bytes, 1 tensors)

weight f4 [2, 32]
00000000: c4d8 38bd a04d 10bd 06ab c8bd e15b 09be
00000010: 34ab c7bc 1e3d d13d 9a49 3d3d 687d 42bd
00000020: ecf8 4a3c 9b39 443d 6da5 9b3c 1aed 71bd
00000030: e428 7d3d c45e f4bd a5a7 a6bd 68a9 0c3c
00000040: 707e d83d de94 27bd d2da 93bd ff8f 1e3d
00000050: c9e7 113d 7fa2 ca3d a20c 903d 8576 1cbe
00000060: cb84 21bd af6b 11be 3ec4 773d a576 5fbd
00000070: aa35 87bd 9371 d0bc a649 10bd 727a 81bd
00000080: 88ae 5abf 243a 413f b275 e3bf 4818 933f
00000090: ca4d 393f 43e8 94bd 2f1a 93bf 6980 80bf
000000a0: 7c9b 7bbf 5b06 0e40 7a79 0340 a4af 19bf
000000b0: 8703 dfbe 8586 b13f 1838 7e3e e9e0 bebd
000000c0: 12c5 503f 05ff a53d 3524 a23e 3327 90bf
000000d0: f3a5 c03e c2ad 4d3f 59c6 cc3f 5143 5ebd
000000e0: 75d6 153c 0cc7 5ebf 8028 49bd b36e 22bf
000000f0: ca36 23c0 abdb 19bf 8198 93bf c0bc ddbc
-0.0451286 -0.03523028 -0.09798245 -0.13413955 -0.024373628 0.10216735 0.04621277 -0.047482878
0.012388449 0.0479065 0.01899978 -0.05906401 0.061806574 -0.119321376 -0.081374444 0.0085853115
0.10570991 -0.040913455 -0.07219471 0.038711544 0.03562144 0.09894275 0.070336595 -0.15279587
-0.039433282 -0.14201234 0.060489886 -0.054556508 -0.066020325 -0.025444781 -0.035226487 -0.06322183
-0.85422564 0.7547934 -1.7770293 1.1491785 0.7238432 -0.07270863 -1.1492366 -1.0039188
-0.98284125 2.219138 2.0542893 -0.6003363 -0.4355738 1.3869177 0.24826086 -0.09320242
0.81550705 0.08105282 0.3166825 -1.1261963 0.3762661 0.8034326 1.5998031 -0.054263417
0.009145369 -0.8702247 -0.04911089 -0.63450164 -2.550219 -0.6010081 -1.1530915 -0.027067542
