rec/algo/cache/rel_emb.pth (torch, 1500 bytes, 1 tensors)

weight f4 [2, 32]
1.05445 0.17210808 -2.3792198 -1.1164423 -0.61943895 0.6225824 0.66608876 -1.0368196
0.13287623 0.45149332 0.5753822 1.8780158 0.3311835 1.8279259 -0.90469223 -3.2009761
0.2980947 0.3812397 -0.12611192 -0.08972869 -2.3788493 -1.6800547 0.09828181 1.969576
0.48601592 -0.26686513 -0.6729775 1.6335795 0.58752483 0.39245385 -1.1423551 0.35032487
-2.0143034 -0.114769235 -0.47303522 -1.6494614 0.7503718 0.55738026 0.00299478 1.4582667
-0.98385584 0.22086854 -0.85971117 -0.036644053 2.460126 1.1868649 -0.26119727 -0.14417244
1.1350014 -0.13226971 0.091773845 -0.11467349 0.01103689 0.19143751 0.94719636 -0.2958833
0.097209506 0.3291209 1.2659428 -0.29604727 -0.79205084 -0.76677626 -1.0682175 -0.06803116
00000000: 38f8 863f 1a3d 303e 2345 18c0 95e7 8ebf
00000010: 8d93 1ebf 8f61 1f3f cb84 2a3f 81b6 84bf
00000020: b510 083e 222a e73e 3f4c 133f d262 f03f
00000030: e290 a93e 7af9 e93f e999 67bf cbdc 4cc0
00000040: de9f 983e da31 c33e 7c23 01be adc3 b7bd
00000050: 113f 18c0 080c d7bf f947 c93d 111b fc3f
00000060: 14d7 f83e 8ca2 88be 4148 2cbf 2219 d13f
00000070: 0768 163f b6ef c83e b138 92bf c85d b33e
00000080: 59ea 00c0 220c ebbd ac31 f2be 8d21 d3bf
00000090: 5e18 403f 79b0 0e3f 1244 443b 7ca8 ba3f
000000a0: fadd 7bbf 5d2b 623e 0816 5cbf 1318 16bd
000000b0: b472 1d40 30eb 973f a6bb 85be f1a1 13be
000000c0: ba47 913f b671 07be edf3 bb3d efd9 eabd
000000d0: 12d4 343c 3208 443e 767b 723f 047e 97be
000000e0: c715 c73d 8982 a83e 6a0a a23f 8293 97be
000000f0: d8c3 4abf 734b 44bf 5abb 88bf ec53 8bbd
