rec/algo/cache/rel_emb.pth (torch, 1500 bytes, 1 tensors)

weight f4 [2, 32]
0.66128516 0.08940489 -0.04495402 -0.14920145 0.74254906 0.5295595 1.3739537 -0.13294947
1.0845474 -0.50472564 -1.451115 0.225874 -0.30297872 0.28996763 1.30889 -0.8201175
-1.6279804 -0.030794855 -0.19242549 -1.4902645 -1.0654353 -0.29421613 -1.0331854 -0.07275208
-0.023921765 0.613937 -1.4313658 -0.3519217 2.1605897 0.16436908 0.4656743 1.9409183
-0.5544365 0.35546958 -0.41524503 -0.012684823 0.98272187 1.7350551 -0.016352594 0.45100188
0.63919073 0.30653474 -1.3952264 1.2345835 -0.6298084 0.39161116 -0.2274841 -0.021243207
-0.41072586 -1.3653094 1.8485756 -0.3815506 -0.8794002 0.6086735 -0.026176818 0.7418641
1.2430769 -0.3104207 0.6787083 -1.4021448 1.112181 -1.568477 -0.48770732 2.768702
00000000: fc49 293f e919 b73d b521 38bd 44c8 18be
00000010: b217 3e3f 3691 073f b7dd af3f e823 08be
00000020: 73d2 8a3f b335 01bf 23be b9bf 844b 673e
00000030: 0720 9bbe a376 943e b589 a73f 38f3 51bf
00000040: a961 d0bf 7e45 fcbc 300b 45be fdc0 bebf
00000050: 2f60 88bf 7fa3 96be 6b3f 84bf 0bff 94bd
00000060: 94f7 c3bc fa2a 1d3f ff36 b7bf 152f b4be
00000070: 1a47 0a40 5e50 283e dd6c ee3e 0370 f83f
00000080: 8def 0dbf 1c00 b63e ff9a d4be 01d4 4fbc
00000090: a993 7b3f 4916 de3f e0f5 85bc b8e9 e63e
000000a0: 01a2 233f 1ff2 9c3e c796 b2bf d506 9e3f
000000b0: 203b 21bf 4281 c83e 98f1 68be 3c06 aebc
000000c0: a94a d2be 75c2 aebf 209e ec3f 9a5a c3be
000000d0: 5f20 61bf 07d2 1b3f c470 d6bc ceea 3d3f
000000e0: 251d 9f3f 76ef 9ebe d4bf 2d3f 7b79 b3bf
000000f0: f25b 8e3f dbc3 c8bf c6b4 f9be 6a32 3140
